…
 . # model.summary() . def load_pretrained_model(): model = VGG16(include_top=True, weights=&#39;imagenet&#39;) transfer_layer = model.get_layer(&#39;block5_pool&#39;) vgg_model = Model(inputs = model.input, outputs = transfer_layer.output) # Todo for layer in vgg_model.layers[0:-2]: layer.trainable = False return vgg_model . vgg_model = load_pretrained_model() . vgg_model.summary() . Model: &#34;model_2&#34; _________________________________________________________________ Layer (type) Output Shape Param # ================================================================= input_3 (InputLayer) (None, 224, 224, 3) 0 _________________________________________________________________ block1_conv1 (Conv2D) (None, 224, 224, 64) 1792 _________________________________________________________________ block1_conv2 (Conv2D) (None, 224, 224, 64) 36928 _________________________________________________________________ block1_pool (MaxPooling2D) (None, 112, 112, 64) 0 _________________________________________________________________ block2_conv1 (Conv2D) (None, 112, 112, 128) 73856 _________________________________________________________________ block2_conv2 (Conv2D) (None, 112, 112, 128) 147584 _________________________________________________________________ block2_pool (MaxPooling2D) (None, 56, 56, 128) 0 _________________________________________________________________ block3_conv1 (Conv2D) (None, 56, 56, 256) 295168 _________________________________________________________________ block3_conv2 (Conv2D) (None, 56, 56, 256) 590080 _________________________________________________________________ block3_conv3 (Conv2D) (None, 56, 56, 256) 590080 _________________________________________________________________ block3_pool (MaxPooling2D) (None, 28, 28, 256) 0 _________________________________________________________________ block4_conv1 (Conv2D) (None, 28, 28, 512) 1180160 _________________________________________________________________ block4_conv2 (Conv2D) (None, 28, 28, 512) 2359808 _________________________________________________________________ block4_conv3 (Conv2D) (None, 28, 28, 512) 2359808 _________________________________________________________________ block4_pool (MaxPooling2D) (None, 14, 14, 512) 0 _________________________________________________________________ block5_conv1 (Conv2D) (None, 14, 14, 512) 2359808 _________________________________________________________________ block5_conv2 (Conv2D) (None, 14, 14, 512) 2359808 _________________________________________________________________ block5_conv3 (Conv2D) (None, 14, 14, 512) 2359808 _________________________________________________________________ block5_pool (MaxPooling2D) (None, 7, 7, 512) 0 ================================================================= Total params: 14,714,688 Trainable params: 2,359,808 Non-trainable params: 12,354,880 _________________________________________________________________ . def build_my_model(pre_trained): my_model = Sequential() # Add the convolutional part of the VGG16 model from above. my_model.add(vgg_model) my_model.add(Flatten()) # Flatten the 
…
ur optimizer, loss function, and learning rate (you can change the learning rate here if you&#39;d like) ## but otherwise this cell can be run as is return my_model . model = build_my_model(vgg_model) . optimizer = Adam(lr=0.001) loss = &#39;binary_crossentropy&#39; metrics = [&#39;binary_accuracy&#39;] model.compile(optimizer=optimizer, loss=loss, metrics=metrics) . model.summary() . Model: &#34;sequential_2&#34; _________________________________________________________________ Layer (type) Output Shape Param # ================================================================= model_2 (Model) (None, 7, 7, 512) 14714688 _________________________________________________________________ flatten_2 (Flatten) (None, 25088) 0 _________________________________________________________________ dense_5 (Dense) (None, 1024) 25691136 _________________________________________________________________ dropout_4 (Dropout) (None, 1024) 0 _________________________________________________________________ dense_6 (Dense) (None, 512) 524800 _________________________________________________________________ dropout_5 (Dropout) (None, 512) 0 _________________________________________________________________ dense_7 (Dense) (None, 256) 131328 _________________________________________________________________ dropout_6 (Dropout) (None, 256) 0 _________________________________________________________________ dense_8 (Dense) (None, 1) 257 ================================================================= Total params: 41,062,209 Trainable params: 28,707,329 Non-trainable params: 12,354,880 _________________________________________________________________ . ## Below is some helper code that will allow you to add checkpoints to your model, ## This will save the &#39;best&#39; version of your model by comparing it to previous epochs o
…
