…
&lt;div class=&quot; highlight hl-ipython3&quot;&gt;&lt;pre&gt;&lt;span&gt;&lt;/span&gt;&lt;span class=&quot;n&quot;&gt;vgg_model&lt;/span&gt;&lt;span class=&quot;o&quot;&gt;.&lt;/span&gt;&lt;span class=&quot;n&quot;&gt;summary&lt;/span&gt;&lt;span class=&quot;p&quot;&gt;()&lt;/span&gt;
&lt;/pre&gt;&lt;/div&gt;

    &lt;/div&gt;
&lt;/div&gt;
&lt;/div&gt;

&lt;div class=&quot;output_wrapper&quot;&gt;
&lt;div class=&quot;output&quot;&gt;

&lt;div class=&quot;output_area&quot;&gt;

&lt;div class=&quot;output_subarea output_stream output_stdout output_text&quot;&gt;
&lt;pre&gt;Model: &amp;#34;model_2&amp;#34;
_________________________________________________________________
Layer (type)                 Output Shape              Param #   
=================================================================
input_3 (InputLayer)         (None, 224, 224, 3)       0         
_________________________________________________________________
block1_conv1 (Conv2D)        (None, 224, 224, 64)      1792      
_________________________________________________________________
block1_conv2 (Conv2D)        (None, 224, 224, 64)      36928     
_________________________________________________________________
block1_pool (MaxPooling2D)   (None, 112, 112, 64)      0         
_________________________________________________________________
block2_conv1 (Conv2D)        (None, 112, 112, 128)     73856     
_________________________________________________________________
block2_conv2 (Conv2D)        (None, 112, 112, 128)     147584    
_________________________________________________________________
block2_pool (MaxPooling2D)   (None, 56, 56, 128)       0         
_________________________________________________________________
block3_conv1 (Conv2D)        (None, 56, 56, 256)       295168    
_________________________________________________________________
block3_conv2 (Conv2D)        (None, 56, 56, 256)       590080    
_________________________________________________________________
block3_conv3 (Conv2D)        (None, 56, 56, 256)       590080    
_________________________________________________________________
block3_pool (MaxPooling2D)   (None, 28, 28, 256)       0         
_________________________________________________________________
block4_conv1 (Conv2D)        (None, 28, 28, 512)       1180160   
_________________________________________________________________
block4_conv2 (Conv2D)        (None, 28, 28, 512)       2359808   
_________________________________________________________________
block4_conv3 (Conv2D)        (None, 28, 28, 512)       2359808   
_________________________________________________________________
block4_pool (MaxPooling2D)   (None, 14, 14, 512)       0         
_________________________________________________________________
block5_conv1 (Conv2D)        (None, 14, 14, 512)       2359808   
_________________________________________________________________
block5_conv2 (Conv2D)        (None, 14, 14, 512)       2359808   
_________________________________________________________________
block5_conv3 (Conv2D)        (None, 14, 14, 512)       2359808   
_________________________________________________________________
block5_pool (MaxPooling2D)   (None, 7, 7, 512)         0         
=================================================================
Total params: 14,714,688
Trainable params: 2,359,808
Non-trainable params: 12,354,880
_________________________________________________________________
&lt;/pre&gt;
&lt;/div&gt;
&lt;/div&gt;

&lt;/div&gt;
&lt;/div&gt;

&lt;/div&gt;
    

    
    
&lt;div class=&quot;cell border-box-sizing code_cell rendered&quot;&gt;
&lt;div class=&quot;input&quot;&gt;
…
&lt;div class=&quot; highlight hl-ipython3&quot;&gt;&lt;pre&gt;&lt;span&gt;&lt;/span&gt;&lt;span class=&quot;n&quot;&gt;model&lt;/span&gt;&lt;span class=&quot;o&quot;&gt;.&lt;/span&gt;&lt;span class=&quot;n&quot;&gt;summary&lt;/span&gt;&lt;span class=&quot;p&quot;&gt;()&lt;/span&gt;
&lt;/pre&gt;&lt;/div&gt;

    &lt;/div&gt;
&lt;/div&gt;
&lt;/div&gt;

&lt;div class=&quot;output_wrapper&quot;&gt;
&lt;div class=&quot;output&quot;&gt;

&lt;div class=&quot;output_area&quot;&gt;

&lt;div class=&quot;output_subarea output_stream output_stdout output_text&quot;&gt;
&lt;pre&gt;Model: &amp;#34;sequential_2&amp;#34;
_________________________________________________________________
Layer (type)                 Output Shape              Param #   
=================================================================
model_2 (Model)              (None, 7, 7, 512)         14714688  
_________________________________________________________________
flatten_2 (Flatten)          (None, 25088)             0         
_________________________________________________________________
dense_5 (Dense)              (None, 1024)              25691136  
_________________________________________________________________
dropout_4 (Dropout)          (None, 1024)              0         
_________________________________________________________________
dense_6 (Dense)              (None, 512)               524800    
_________________________________________________________________
dropout_5 (Dropout)          (None, 512)               0         
_________________________________________________________________
dense_7 (Dense)              (None, 256)               131328    
_________________________________________________________________
dropout_6 (Dropout)          (None, 256)               0         
_________________________________________________________________
dense_8 (Dense)              (None, 1)                 257       
=================================================================
Total params: 41,062,209
Trainable params: 28,707,329
Non-trainable params: 12,354,880
_________________________________________________________________
&lt;/pre&gt;
&lt;/div&gt;
&lt;/div&gt;

&lt;/div&gt;
&lt;/div&gt;

&lt;/div&gt;
    

    
    
&lt;div class=&quot;cell border-box-sizing code_cell rendered&quot;&gt;
&lt;div class=&quot;input&quot;&gt;
…
